traindTextCNNmodel.model (torch, 878720 bytes, 9 tensors)

embedding.weight f4 [20869, 10]
2.6716425 0.66403806 1.3343143 -0.8369895 0.047589406 2.867996 -0.7510779 0.14879046
0.030765157 2.2963214 1.1367315 0.895829 0.5589918 0.5013036 -0.49308458 0.21495298
0.10688782 -0.23674361 0.34103563 0.5925508 1.1658636 0.1481243 0.42102665 0.13279232
0.23382667 -0.18386915 -0.6309903 -0.073076285 0.32749024 0.3106186 1.1190718 0.28959024
0.58656585 1.133877 0.6036269 -0.2833196 -0.3456044 -0.019661602 0.61155975 1.1604546
1.1051612 -0.19299659 0.99640566 0.8816582 0.47247013 0.058634125 -0.8418288 -0.009804591
0.21735108 0.26917863 1.0624655 0.7222002 0.72964865 0.6982415 0.2967078 -0.22429223
-0.43224958 0.054587916 0.5058648 0.7588151 0.9150349 0.68309194 1.0384413 1.0092996
0.021480175 0.1380578 -0.25019392 -0.28420258 0.21604757 0.81356466 1.4624826 0.27205503
-0.07383961 0.85700667 -0.006325878 0.12875542 -0.22054294 0.20416252 -0.26623663 0.37827995
0.63864636 0.24182007 0.78840005 1.1118605 0.36169782 -0.07967191 -0.24754673 -0.39375964
-0.037890445 1.6999506 1.2816212 -0.14512229 0.15454926 0.7443813 0.3276884 -0.10444819
-0.7253328 0.00980996 -0.5773179 0.54188895 1.1835697 0.34275076 0.8315513 -0.22446215
-0.31880453 -0.44295725 -0.7519904 -0.058444265 0.3869086 0.094225295 1.0728124 0.2922924
0.5382934 -0.038585063 -0.12201934 -0.30567014 0.02232965 -0.061486147 -0.011952259 0.7874215
1.0181819 0.4679362 1.1587522 0.43323973 -0.057800513 0.10684374 -0.5804085 0.23647791
-0.16278152 0.18817973 1.4393743 -0.01545546 0.8007523 -0.49732822 0.73953265 -0.14237699
-0.7222187 -0.12811519 -0.025868863 0.374233 0.85172236 0.44785973 0.91560215 0.84704536
-0.13277076 -0.22513738 -0.80450076 0.79049087 -0.37435246 0.40879467 1.4517813 0.53194183
-0.19762948 0.46921328 -0.47928375 -0.12330497 -0.24429944 0.4293176 -0.29648238 0.37088028
0.9735789 0.8430946 0.06430895 0.8734584 -0.7121553 0.43041864 -0.69820136 0.3513169
-0.31959078 0.21459146 1.3774219 0.21522072 0.84926593 -0.71254194 0.41860503 -0.4774003
-0.6778267 -0.033773843 -0.1672238 0.53859437 1.2237134 0.42051637 0.68396956 0.70053434
-0.4820213 -0.0762355 -0.14032504 -0.7970075 0.56315583 0.6383855 1.2112076 -0.17360409
0.4928256 0.097523496 0.11332028 -0.17422953 -0.037852656 -0.17077495 0.22640581 0.4738326
0.62223464 0.7799701 1.024602 0.8004349 -0.100643225 0.117813826 -0.75057095 0.5756141
0.019774454 0.43198237 0.72674084 -0.21527869 0.61626905 1.042077 0.11273292 0.11945612
-0.49858305 -1.2162884 0.10695086 1.4749516 0.9337428 0.5013714 1.0008149 0.57291526
-0.021264061 0.25580248 -0.7263421 0.03734862 0.41455066 0.07525867 1.4500943 0.81612074
-0.47124875 1.0149786 -0.14043736 0.10439148 -0.2560903 0.93324137 0.2141461 0.7296421
1.5199937 0.55627453 -0.37351045 0.8456985 -0.5402233 -0.022918154 -0.16344273 0.11946884
-0.3696128 0.57779 1.4777133 0.35281762 0.18543227 -0.2914694 -0.11670434 -0.640366
00000000: 31fc 2a40 66fe 293f d0ca aa3f f244 56bf
00000010: 1ced 423d 3f8d 3740 a446 40bf 875c 183e
00000020: 3607 fc3c eef6 1240 6b80 913f 0d55 653f
00000030: 161a 0f3f 6f55 003f 9575 fcbe a21c 5c3e
00000040: 00e8 da3d eb6c 72be 399c ae3e 69b1 173f
00000050: 053b 953f e6ad 173e ce90 d73e b6fa 073e
00000060: 4270 6f3e 3248 3cbe 9588 21bf 05a9 95bd
00000070: cdac a73e 6709 9f3e bf3d 8f3f 2c45 943e
00000080: 2e29 163f e222 913f 4b87 1a3f 440f 91be
00000090: 0ff3 b0be 5e11 a1bc 2e8f 1c3f c789 943f
000000a0: ec75 8d3f e6a0 45be 7114 7f3f 5ab4 613f
000000b0: 9be7 f13e 562a 703d 1882 57bf 6fa3 20bc
000000c0: 4891 5e3e c8d1 893e dffe 873f 1de2 383f
000000d0: 41ca 3a3f f4bf 323f 16ea 973e ddac 65be
000000e0: d14f ddbe 9497 5f3d 5b80 013f b541 423f
000000f0: ba3f 6a3f 1ddf 2e3f a5eb 843f bb30 813f
00000100: 31f7 af3c 065f 0d3e 6b19 80be 0083 91be
00000110: 933b 5d3e c645 503f a132 bb3f cc4a 8b3e
00000120: 3939 97bd ca64 5b3f 5049 cfbb 76d8 033e
00000130: 02d6 61be fb0f 513e 2b50 88be e9ad c13e
00000140: 547e 233f ae9f 773e 96d4 493f 7251 8e3f
00000150: 7530 b93e 072b a3bd e47c 7dbe dd9a c9be
00000160: 0333 1bbd fb97 d93f 2a0c a43f f09a 14be
00000170: 2942 1e3e c68f 3e3f c6c6 a73e efe8 d5bd
00000180: 69af 39bf f4b9 203c 1bcb 13bf 3cb9 0a3f
00000190: 367f 973f 077d af3e 8ce0 543f 68d9 65be
000001a0: 593a a3be 4bcb e2be 7182 40bf 4163 6fbd
000001b0: e218 c63e 31f9 c03d eb51 893f 59a7 953e
000001c0: 99cd 093f 5f0b 1ebd 47e5 f9bd cc80 9cbe
000001d0: acec b63c e6d8 7bbd 68d3 43bc 7594 493f
000001e0: c953 823f 5595 ef3e fe51 943f 99d1 dd3e
000001f0: 3bc0 6cbd e4d0 da3d a795 14bf 4427 723e
00000200: 33b0 26be 30b2 403e 6b3d b83f e638 7dbc
00000210: 1afe 4c3f cea1 febe 0352 3d3f 46cb 11be
00000220: 53e3 38bf a130 03be f0ea d3bc 789b bf3e
00000230: 7a0a 5a3f df4d e53e e764 6a3f f7d7 583f
00000240: 0ff5 07be 6a8a 66be c3f3 4dbf 9c5d 4a3f
00000250: 20ab bfbe 894d d13e f8d3 b93f 572d 083f
00000260: 625f 4abe b93c f03e ae64 f5be 5187 fcbd
00000270: a229 7abe 84cf db3e 8acc 97be 05e4 bd3e
00000280: 773c 793f 0cd5 573f 69b4 833d f89a 5f3f
00000290: cf4f 36bf d55f dc3e 53bd 32bf cfdf b33e
000002a0: 67a1 a3be ddbd 5b3e 5c4f b03f d262 5c3e
000002b0: 7e69 593f 2669 36bf 6653 d63e d06d f4be
000002c0: 0d86 2dbf 7156 0abd b73c 2bbe 52e1 093f
000002d0: a4a2 9c3f ec4d d73e a118 2f3f 3856 333f
000002e0: 7fcb f6be 5c21 9cbd 5eb1 0fbe af08 4cbf
000002f0: fb2a 103f 3b6d 233f da08 9b3f 45c5 31be
00000300: a353 fc3e 66ba c73d 7714 e83d 3a69 32be
00000310: 630b 1bbd a1df 2ebe edd6 673e 309a f23e
00000320: c54a 1f3f 1fac 473f 2926 833f 4de9 4c3f
00000330: 091e cebd 6048 f13d 6b25 40bf 725b 133f
00000340: 09fe a13c cb2c dd3e b00b 3a3f 0472 5cbe
00000350: cfc3 1d3f c762 853f 84e0 e63d 69a5 f43d
00000360: 4746 ffbe 57af 9bbf 0d09 db3d 37cb bc3f
00000370: c509 6f3f e059 003f b41a 803f 93aa 123f
00000380: f831 aebc 8bf8 823e 8ef1 39bf defa 183d
00000390: fc3f d43e 3821 9a3d b19c b93f 4aed 503f
000003a0: 8447 f1be d2ea 813f d0ce 0fbe 33cb d53d
000003b0: 451e 83be e8e8 6e3f 1e49 5b3e d3c9 3a3f
000003c0: 278f c23f 0268 0e3f c33c bfbe b27f 583f
000003d0: 134c 0abf dabe bbbc 885d 27be 14ac f43d
000003e0: e43d bdbe 0cea 133f b625 bd3f 83a4 b43e
000003f0: f5e1 3d3e 7a3b 95be af02 efbd 07ef 23bf

conv1List.0.weight f4 [77, 10, 3]
-0.031059748 0.10678856 -0.12321297 0.08557548 0.025126928 0.15805136 -0.025349075 -0.13038693
0.0008465767 -0.0428363 0.15268579 -0.15734217 0.07959048 -0.08376195 -0.032056253 -0.06678424
-0.15271327 0.026884712 0.17311934 -0.083149455 0.029030144 0.10045007 -0.112734824 -0.11674356
0.098772496 -0.13731214 -0.02981018 0.14554211 0.118571706 -0.13020101 0.086816065 -0.01256008
-0.05736836 0.060485408 -0.00029916974 -0.10431955 -0.12175245 0.017682076 0.09099683 0.01116226
-0.1397742 0.015078978 -0.15008615 0.14837976 -0.113858655 0.16501197 -0.07717697 -0.019181224
0.09998083 0.05720887 0.16111809 -0.007890838 -0.0011480574 -0.021978598 0.053491104 0.15307134
-0.19027476 0.12911431 -0.113800526 -0.02803623 -0.012144347 0.053402923 -0.066893876 -0.08306467
-0.025715822 -0.12125834 -0.1004921 0.04944547 -0.15601356 -0.18769188 0.09941895 -0.14775556
-0.029275483 -0.067485444 0.10174707 0.053898927 -0.034217667 0.17208026 0.1535224 -0.083066076
0.14083326 -0.05463029 0.08527373 0.12658443 0.14455481 0.09415648 0.16064513 0.08784161
-0.08874175 -0.0039250017 0.1523384 -0.12811118 -0.04485761 0.00039456924 0.096017666 0.1509277
-0.06005833 -0.01593896 -0.15427998 0.07666216 -0.01923273 0.053164512 0.13468495 -0.14313334
-0.09009641 -0.0058210753 -0.055717535 0.10201964 0.061708663 0.069129504 0.15253976 -0.06738775
0.15392771 -0.08190746 0.16503279 0.16971828 0.14119612 0.13982601 -0.0701634 0.16861
-0.13112098 -0.08909786 -0.15620741 0.15578242 0.05300866 -0.058715485 0.09622524 0.13978633
-0.00720102 -0.1132679 0.028787306 -0.13993685 -0.16954204 -0.1611172 -0.07485753 0.09889937
-0.13488665 -0.18679453 -0.10608221 0.14511274 0.078300916 0.13211353 -0.09044593 0.09883399
0.010213304 -0.08999101 -0.15410548 -0.12938114 0.1946944 0.057414 0.031491645 -0.14986302
-0.036809925 -0.0346744 0.0656255 -0.07726339 -0.13669467 0.12609643 -0.055061128 -0.1777103
0.11973065 -0.0011742502 0.09998672 0.051930666 -0.092995696 0.007671933 -0.20605269 0.10984671
-0.14434275 0.11368519 0.14858542 0.16707656 0.034338 0.05514044 -0.07224927 -0.11629769
-0.018999198 -0.10052473 0.003357195 0.026525687 0.012360792 -0.086214274 -0.056325078 0.13282561
-0.08772592 0.1599196 0.046314858 0.076057635 0.10212948 0.048780948 0.17067623 -0.11691742
0.0459472 -0.12136757 0.18119943 0.052496836 -0.022556733 0.1415544 0.040456902 0.01618939
0.11370613 0.03716756 -0.16405207 0.07429499 -0.19554625 -0.04540905 0.1465152 -0.11932707
0.016723603 0.1531778 0.030286811 0.06632056 -0.083259545 0.12570946 -0.11905113 0.07534003
0.014868099 0.038818717 0.016634516 -0.030380422 0.036811065 -0.12993376 0.1602333 -0.106320456
-0.14332692 -0.034399007 -0.03456397 -0.14781429 0.10727868 0.018542565 0.08467935 -0.12718274
-0.12842481 -0.037946098 0.028600506 0.013446085 -0.13157557 0.14696147 -0.1783901 -0.11749953
0.1478135 -0.15725905 -0.05327979 0.16872743 -0.17436337 -0.16699688 -0.07832916 -0.15602379
-0.020682594 0.03698312 -0.03555309 -0.08773605 -0.075706795 -0.039698884 -0.0024640756 0.0701158
00000000: 0371 febc f6b3 da3d 1557 fcbd 3242 af3d
00000010: fdd6 cd3c 37d8 213e dda8 cfbc 2784 05be
00000020: cdec 5d3a 1e75 2fbd aa59 1c3e 4e1e 21be
00000030: 5500 a33d 638b abbd 6b4d 03bd 2dc6 88bd
00000040: de60 1cbe 543d dc3c 3246 313e 434a aabd
00000050: a0d0 ed3c c4b8 cd3d 84e1 e6bd 3f17 efbd
00000060: 3c49 ca3d 8e9b 0cbe 7b34 f4bc fe08 153e
00000070: b9d5 f23d 6a53 05be 9fcc b13d cbc8 4dbc
00000080: 16fb 6abd 8cbf 773d e2d9 9cb9 7da5 d5bd
00000090: 5959 f9bd 00da 903c 8c5c ba3d e9e1 363c
000000a0: f820 0fbe d10d 773c 2fb0 19be ddf0 173e
000000b0: ba2e e9bd e6f8 283e f60e 9ebd f121 9dbc
000000c0: c0c2 cc3d d953 6a3d 24fc 243e 9348 01bc
000000d0: 6a7a 96ba 760c b4bc 7d19 5b3d bcbe 1c3e
000000e0: 63d7 42be 8b36 043e 4010 e9bd 3cac e5bc
000000f0: 15f9 46bc 06bd 5a3d a8ff 88bd cf1d aabd
00000100: fda9 d2bc 4b56 f8bd cdce cdbd 5587 4a3d
00000110: 05c2 1fbe 4d32 40be 2a9c cb3d 3c4d 17be
00000120: 23d3 efbc cf35 8abd c560 d03d 1fc5 5c3d
00000130: d327 0cbd cf35 303e fa34 1d3e 8c1e aabd
00000140: 9836 103e 03c4 5fbd fea3 ae3d 599f 013e
00000150: 2d06 143e 1dd5 c03d 2880 243e 4de6 b33d
00000160: 3cbe b5bd 4d9d 80bb 99fe 1b3e 942f 03be
00000170: 9dbc 37bd 30de ce39 e9a4 c43d ca8c 1a3e
00000180: b9ff 75bd 6c92 82bc 92fb 1dbe 0d01 9d3d
00000190: f58d 9dbc 08c3 593d daea 093e 8c91 12be
000001a0: 7784 b8bd b8be bebb 1238 64bd acef d03d
000001b0: 39c2 7c3d c593 8d3d 6233 1c3e 9702 8abd
000001c0: 3a9f 1d3e 19bf a7bd 5bfe 283e a1ca 2d3e
000001d0: b795 103e 8d2e 0f3e d4b1 8fbd 1aa8 2c3e
000001e0: 9444 06be f078 b6bd d6f4 1fbe 6d85 1f3e
000001f0: 9c1f 593d a67f 70bd bd11 c53d 2624 0f3e
00000200: 89f6 ebbb 00f9 e7bd 5bd3 eb3c 9b4b 0fbe
00000210: 6e9c 2dbe e8fb 24be e84e 99bd c18b ca3d
00000220: ba1f 0abe 1147 3fbe a141 d9bd 6f98 143e
00000230: 3b5c a03d c548 073e b73b b9bd 7a69 ca3d
00000240: b455 273c 354d b8bd d4cd 1dbe 7d7c 04be
00000250: f85d 473e f12a 6b3d 62fd 003d b175 19be
00000260: 01c6 16bd be06 0ebd aa66 863d 453c 9ebd
00000270: b0f9 0bbe 6c1f 013e c787 61bd b0f9 35be
00000280: 5835 f53d 4ce9 99ba d6c5 cc3d 40b5 543d
00000290: 8774 bebd d764 fb3b 7aff 52be 50f7 e03d
000002a0: 96ce 13be c8d3 e83d c726 183e 1e16 2b3e
000002b0: 01a6 0c3d f1da 613d 6df7 93bd 7c2d eebd
000002c0: 35a4 9bbc e9df cdbd 6304 5c3b 664c d93c
000002d0: eb84 4a3c 1c91 b0bd 20b5 66bd 7003 083e
000002e0: a6a9 b3bd f7c1 233e a6b4 3d3d 1bc4 9b3d
000002f0: 4329 d13d 88ce 473d c0c5 2e3e 6672 efbd
00000300: 2233 3c3d 8f8f f8bd 588c 393e ec06 573d
00000310: e6c8 b8bc a3f3 103e 23b6 253d 9d9f 843c
00000320: c2de e83d 033d 183d 44fd 27be f927 983d
00000330: 473d 48be d7fe 39bd 1508 163e c061 f4bd
00000340: f0ff 883c a4da 1c3e 0c1c f83c 13d3 873d
00000350: fb83 aabd fbb9 003e 14d1 f3bd e04b 9a3d
00000360: 5499 733c 6000 1f3d 1c45 883c 5de0 f8bc
00000370: 33c7 163d 5b0d 05be 3314 243e 8abe d9bd
00000380: 4bc4 12be f9e5 0cbd f392 0dbd a15c 17be
00000390: edb4 db3d 94e6 973c 5e6c ad3d 313c 02be
000003a0: cb81 03be 5e6d 1bbd 9c4b ea3c f84c 5c3c
000003b0: bfbb 06be 117d 163e e5ab 36be 98a3 f0bd
000003c0: 6c5c 173e 8408 21be e93b 5abd e2c6 2c3e
000003d0: 508c 32be 3b01 2bbe 0a6b a0bd b3c4 1fbe
000003e0: 8b6e a9bc 9d7b 173d 1ea0 11bd f5ae b3bd
000003f0: 2a0c 9bbd 4c9b 22bd 547c 21bb df98 8f3d

conv1List.0.bias f4 [77]
-0.172163 0.011839777 -0.04170353 -0.15574352 0.04570052 0.0022108208 0.07816201 -0.14412273
-0.16494213 0.03643667 -0.18647301 -0.00817734 -0.10997759 0.12604783 -0.075300574 -0.0077857217
-0.081003286 0.13751864 0.06591001 -0.17289694 -0.14324638 -0.13248155 -0.13869202 0.17284073
0.17947531 -0.18339914 -0.14242601 -0.11071646 -0.16172174 -0.12592554 0.13532452 0.09362857
0.0959685 -0.08623408 0.10720699 -0.0036502501 0.039122313 0.1207501 0.15655322 0.08652619
-0.13005671 0.14833751 0.07313078 -0.11316224 0.10756948 0.026123831 0.020673798 -0.0197359
0.016165093 0.117921196 0.1203301 0.15127325 -0.10715125 -0.08671452 0.022309853 -0.1484077
-0.17439388 -0.11753922 0.060061164 -0.09486579 -0.11912099 0.13240148 -0.03576915 -0.16822974
0.075995095 0.066949226 0.13871923 -0.19022699 -0.04755492 -0.027887812 -0.077768035 -0.021402927
0.17968366 -0.11662776 0.040789884 -0.1530258 0.07996098
00000000: 7f4b 30be a0fb 413c 52d1 2abd 3b7b 1fbe
00000010: 7830 3b3d 6be3 103b 6713 a03d e994 13be
00000020: 97e6 28be 9e3e 153d c8f2 3ebe 40fa 05bc
00000030: ee3b e1bd af12 013e 3037 9abd 5e1f ffbb
00000040: 0de5 a5bd b0d1 0c3e d4fb 863d e50b 31be
00000050: 2eaf 12be 3ea9 07be 4805 0ebe 29fd 303e
00000060: 60c8 373e fccc 3bbe 20d8 11be 50bf e2bd
00000070: 629a 25be a0f2 00be 8392 0a3e 56c0 bf3d
00000080: 228b c43d 7e9b b0bd 578f db3d 0939 6fbb
00000090: b83e 203d d44b f73d 7d4f 203e a534 b13d
000000a0: 962d 05be cae5 173e 97c5 953d 9bc1 e7bd
000000b0: 634d dc3d a501 d63c 195c a93c 2fad a1bc
000000c0: a86c 843c ab80 f13d a16f f63d 60e7 1a3e
000000d0: 1d72 dbbd 6297 b1bd 27c3 b63c 30f8 17be
000000e0: 4f94 32be 67b8 f0bd b202 763d ff48 c2bd
000000f0: b5f5 f3bd 4194 073e ac82 12bd 6b44 2cbe
00000100: 51a3 9b3d ad1c 893d 6a0c 0e3e ddca 42be
00000110: f3c8 42bd fb74 e4bc d944 9fbd 3155 afbc
00000120: fefe 373e 89da eebd 4b13 273d ccb2 1cbe
00000130: 95c2 a33d

conv1List.1.weight f4 [77, 10, 4]
-0.13480173 0.06591308 0.014789296 0.039824095 -0.06156529 -0.107913785 -0.14012215 -0.10619724
0.0056301164 0.085638426 -0.027200324 -0.044992287 0.025660086 -0.08741515 -0.059336714 -0.12926169
0.0474765 -0.15099765 -0.17219733 -0.035856582 -0.20907582 -0.12678017 -0.012746308 -0.18383679
-0.089208394 -0.16526455 0.112201594 -0.061568573 -0.08293272 -0.062682785 -0.1183744 0.081685446
-0.04254941 -0.14897114 -0.16337873 -0.17141654 -0.05545322 0.00737034 -0.083089404 -0.046564445
-0.13071227 -0.12571102 0.013000007 0.007546999 0.08030469 -0.025098765 0.009361428 0.12737745
-0.13792078 0.05027358 -0.08922938 0.0039225975 0.096907504 -0.04622735 -0.06587844 0.07548808
0.107740454 0.16771632 0.14780435 -0.05477038 -0.08313998 -0.035325043 -0.12364667 0.051566422
-0.1080114 0.04640636 0.039396532 -0.16010742 0.12148192 0.08666094 -0.031841043 0.123664156
0.18535244 0.15308465 0.15841919 0.18638413 -0.069710456 -0.023644766 0.09342056 -0.015505483
-0.1403831 0.041103333 -0.042802766 -0.08186556 -0.10280275 0.13534185 -0.13933079 0.1283857
0.08439979 0.13789718 -0.17971244 -0.11102592 -0.08013962 0.084149465 -0.02645095 0.04939618
0.05391528 -0.12078118 0.065274306 -0.056860447 -0.075926535 0.056384444 -0.010413094 0.12674685
-0.03578366 0.15613534 -0.13382438 0.023932267 -0.0038513797 -0.07863084 -0.006760659 -0.036505062
0.0727572 0.11476301 0.10081303 0.03767655 -0.047710415 0.08864474 -0.1546123 -0.039605744
0.15136303 -0.057453457 -0.042997267 -0.08244824 -0.0015386448 0.013621728 0.09427739 0.01620272
0.037225936 -0.044525433 -0.103689544 -0.13612832 -0.056701988 0.040709298 -0.104579456 0.046644907
-0.06793697 0.18310213 0.096711926 0.062763065 -0.0030814765 -0.0146278385 0.06040063 -0.01624999
0.07972758 0.034390848 -0.10978502 0.08592171 0.14303564 -0.0075304233 -0.013736565 0.10228787
-0.104955226 -0.08433789 0.07042228 0.18937257 0.14395587 -0.024095701 0.004287104 0.08743488
-0.10306764 -0.026614392 -0.09579765 -0.118502535 0.08208749 0.03332725 0.063480675 0.11540703
0.012915333 -0.048967995 -0.10251952 0.1349747 0.0035077836 0.05633922 0.09407293 0.14463422
-0.080309965 0.11748636 -0.0989432 0.034295462 -0.11625304 0.1006275 0.12996724 -0.16328646
0.03172882 0.1523671 -0.12454316 -0.006510535 -0.09281617 -0.07983445 -0.071558915 0.045871798
0.059146255 0.11993495 -0.00047044826 -0.006538737 -0.13508372 0.10296122 0.047902066 -0.114239305
0.14987655 0.037216388 -0.03725979 -0.06628205 -0.12547146 -0.04226531 0.13009217 -0.020774279
-0.008937917 0.12771845 -0.03174596 0.14157702 0.14865139 0.11977798 0.13377777 -0.05787878
0.152578 0.09855819 0.008619534 -0.026879564 -0.0036673 0.1260932 -0.0644009 0.1295502
0.018130854 0.063549854 0.07336745 0.0004648178 -0.050356653 0.1094977 -0.08418108 0.1511492
-0.1322697 -0.14521836 0.15127869 0.11806416 -0.005173099 0.0954913 -0.10709117 -0.12383847
0.10531314 -0.11618 -0.1320661 0.05130743 0.08627974 0.10599672 -0.05569653 0.08354201
-0.1597175 0.09423436 0.114436135 0.08110322 -0.08261079 -0.113247156 0.07095897 0.09918429
00000000: 7709 0abe 70fd 863d ce4e 723c 971e 233d
00000010: e32b 7cbd e701 ddbd 2e7c 0fbe f07d d9bd
00000020: d77c b83b 3363 af3d 37d3 debc d549 38bd
00000030: 1a35 d23c b706 b3bd 0e0b 73bd 2d5d 04be
00000040: b876 423d 219f 1abe 7f54 30be 5ade 12bd
00000050: f917 56be a9d2 01be e4d5 50bc b63f 3cbe
00000060: e4b2 b6bd 1c3b 29be f3c9 e53d 542f 7cbd
00000070: a1d8 a9bd d55f 80bd 476e f2bd b34a a73d
00000080: 4a48 2ebd e48b 18be c14c 27be d187 2fbe
00000090: ea22 63bd e582 f13b c72a aabd 5cba 3ebd
000000a0: 70d9 05be 64ba 00be fbfd 543c d14c f73b
000000b0: c976 a43d ed9b cdbc ad60 193c 3c6f 023e
000000c0: 1b3b 0dbe abeb 4d3d e5bd b6bd 2289 803b
000000d0: 7177 c63d e458 3dbd 47eb 86bd 7f99 9a3d
000000e0: 07a7 dc3d d4bd 2b3e 065a 173e e856 60bd
000000f0: 4b45 aabd feb0 10bd 773a fdbd 5037 533d
00000100: 1535 ddbd 9814 3e3d 425e 213d 33f3 23be
00000110: 83cb f83d 4a7b b13d c16b 02bd a243 fd3d
00000120: 08cd 3d3e 39c2 1c3e a438 223e 7bdb 3e3e
00000130: 5bc4 8ebd abb2 c1bc 4753 bf3d b60a 7ebc
00000140: 96c0 0fbe f85b 283d f451 2fbd 21a9 a7bd
00000150: 408a d2bd 0e97 0a3e bbac 0ebe 8a77 033e
00000160: ccd9 ac3d eb34 0d3e 8a06 38be 8f61 e3bd
00000170: 3e20 a4bd 8e56 ac3d aaaf d8bc a653 4a3d
00000180: 45d6 5c3d 205c f7bd 89ae 853d 80e6 68bd
00000190: 5f7f 9bbd 60f3 663d af9b 2abc edc9 013e
000001a0: e391 12bd f1e1 1f3e 4209 09be 9a0d c43c
000001b0: 6e67 7cbb 3509 a1bd 8588 ddbb 5586 15bd
000001c0: ba01 953d de08 eb3d 1077 ce3d ba52 1a3d
000001d0: ff6b 43bd 608b b53d b052 1ebe a239 22bd
000001e0: e9fe 1a3e 5154 6bbd e71d 30bd 9fda a8bd
000001f0: 5aac c9ba ab2d 5f3c 8114 c13d 91bb 843c
00000200: 397a 183d 4d60 36bd 2f5b d4bd 3965 0bbe
00000210: 5840 68bd cbbe 263d c12d d6bd bb0e 3f3d
00000220: 8a22 8bbd 207f 3b3e e710 c63d ec89 803d
00000230: 99f2 49bb 9aa9 6fbc a766 773d b31e 85bc
00000240: 3748 a33d 6bdd 0c3d f8d6 e0bd b9f7 af3d
00000250: ef77 123e c5c1 f6bb 540f 61bc 4e7c d13d
00000260: c4f2 d6bd 58b9 acbd 8e39 903d e2ea 413e
00000270: 2b69 133e 5964 c5bc d67a 8c3b 0f11 b33d
00000280: 2015 d3bd 6d06 dabc 8f31 c4bd 75b1 f2bd
00000290: 7c1d a83d 2882 083d 2802 823d 855a ec3d
000002a0: d59a 533c aa92 48bd c1f5 d1bd cf36 0a3e
000002b0: d8e2 653b f4c3 663d 4fa9 c03d fe1a 143e
000002c0: 8d79 a4bd b09c f03d bca2 cabd 6679 0c3d
000002d0: 1316 eebd ca15 ce3d 2216 053e 9134 27be
000002e0: 14f6 013d 1f06 1c3e 7c10 ffbd 5356 d5bb
000002f0: 6716 bebd 3e80 a3bd 7b8d 92bd 11e4 3b3d
00000300: 5843 723d 74a0 f53d 7fa6 f6b9 e742 d6bb
00000310: 6353 0abe 55dd d23d f534 443d 4cf6 e9bd
00000320: 3d79 193e 3670 183d b99d 18bd e2be 87bd
00000330: 977b 00be 641e 2dbd e236 053e d22e aabc
00000340: 5770 12bc a0c8 023e 0d08 02bd 91f9 103e
00000350: 1238 183e 284e f53d 0afd 083e 4d12 6dbd
00000360: 683d 1c3e e0d8 c93d f238 0d3c 8832 dcbc
00000370: 1657 70bb 931e 013e 9ee4 83bd cfa8 043e
00000380: 2887 943c 6d26 823d ac41 963d cab2 f339
00000390: c742 4ebd 5540 e03d 2167 acbd dbc6 1a3e
000003a0: b571 07be 1fb4 14be cde8 1a3e 9fcb f13d
000003b0: 1a83 a9bb f190 c33d 9e52 dbbd 069f fdbd
000003c0: 6aae d73d c8ef edbd 563c 07be bd27 523d
000003d0: 6fb3 b03d cf14 d93d 0b22 64bd 1318 ab3d
000003e0: fc8c 23be f2fd c03d 7e5d ea3d 7219 a63d
000003f0: d92f a9bd 20ee e7bd f052 913d 2221 cb3d

conv1List.1.bias f4 [77]
-0.023857595 -0.0069621135 0.00548404 -0.05852322 0.021795014 0.12150614 0.06882217 -0.06818635
-0.051195253 -0.070003234 0.014759543 -0.12756509 -0.1422944 -0.14373185 0.00084805704 -0.15295202
0.041807804 0.087350786 -0.10389854 0.114900775 -0.15339248 0.059588615 0.035616692 0.08950117
-0.15640162 0.016762998 0.087764196 -0.042482715 -0.117721036 -0.15339638 -0.11293916 -0.11745462
0.0580585 0.02723608 0.055375762 -0.07483148 -0.1410757 0.10782168 0.023279974 0.12920338
-0.15161808 -0.119393624 -0.034902718 -0.15349649 -0.04837698 -0.10486007 0.020724734 -0.019422004
-0.14373885 -0.06356301 0.05261652 -0.0358578 -0.037783947 0.012722115 0.08967133 -0.07087975
-0.15454735 -0.06207988 0.03271017 -0.15560974 0.0053374227 0.12227709 0.027597377 -0.096271984
-0.12986308 0.08131093 -0.030792898 -0.09669724 0.12542452 5.0901817e-05 0.04887313 -0.0288964
-0.08578508 0.10267707 -0.1147986 -0.011617799 0.14384194
00000000: 0171 c3bc 7122 e4bb 76b3 b33b 0bb6 6fbd
00000010: 758b b23c 36d8 f83d a3f2 8c3d 49a5 8bbd
00000020: 1db2 51bd db5d 8fbd 03d2 713c 6ca0 02be
00000030: a0b5 11be 712e 13be 2550 5e3a 749f 1cbe
00000040: a93e 2b3d f8e4 b23d c2c8 d4bd 1951 eb3d
00000050: eb12 1dbe 3113 743d cfe2 113d 644c b73d
00000060: bf27 20be 8e52 893c b7bd b33d 5b02 2ebd
00000070: ba17 f1bd f113 1dbe a54c e7bd 0c8c f0bd
00000080: c0ce 6d3d 331e df3c b2d1 623d 3f41 99bd
00000090: 2676 10be 9dd1 dc3d a5b5 be3c e44d 043e
000000a0: c541 1bbe a584 f4bd 27f6 0ebd 2f2e 1dbe
000000b0: f126 46bd e0c0 d6bd ebc6 a93c e51a 9fbc
000000c0: 4730 13be 532d 82bd 6c84 573d a1df 12bd
000000d0: 57c3 1abd 6b70 503c 9aa5 b73d 6729 91bd
000000e0: a941 1ebe 7947 7ebd 19fb 053d 2958 1fbe
000000f0: 8ce5 ae3b 696c fa3d e513 e23c 3f2a c5bd
00000100: d4fa 04be 5886 a63d 6341 fcbc 3409 c6bd
00000110: 496f 003e 697f 5538 312f 483d 25b8 ecbc
00000120: 17b0 afbd 5b48 d23d 871b ebbd 9558 3ebc
00000130: 4d4b 133e

conv1List.2.weight f4 [77, 10, 5]
-0.011446702 0.016205724 0.07824697 0.10726203 -0.03452001 0.15477797 0.004831227 -0.058259774
-0.0028202734 0.012445357 -0.096401505 -0.114523426 -0.010230271 0.077961124 0.057640355 0.13648784
0.14529711 -0.042558108 0.039386034 -0.03920547 0.12169941 0.041459262 0.14542921 0.12078698
-0.07883626 0.068401374 0.01166703 0.017182726 -0.060813665 -0.022230431 0.036956348 -0.08293984
0.017516114 -0.08923738 0.068466194 0.09509937 0.10048142 -0.041366197 0.107482545 0.024285208
0.0511296 0.16477823 0.031758703 0.068861604 0.097013935 -0.0061943964 0.085648656 0.00515465
-0.14614934 0.049736213 0.12257072 0.004636736 0.10564331 0.08678498 -0.02568805 0.029502416
0.11519719 -0.091291115 -0.03143135 -0.10827843 0.020231381 0.080012366 0.049647126 -0.112212524
0.03621129 -0.013238504 -0.112962075 0.06356511 -0.12107348 0.059809033 0.105633065 -0.060616348
-0.017652161 0.007270622 -0.073905095 0.090017624 -0.02237626 -0.09416796 0.010084655 -0.062252205
-0.04455342 0.13296105 -0.10224962 -0.101454824 0.084052965 -0.16526671 -0.11135001 -0.09266474
0.064673565 0.02202695 -0.049704406 -0.07123848 -0.02073929 -0.12853219 0.03714121 0.13842897
-0.091882154 -0.041874893 -0.0006073819 -0.019427858 -0.0056884955 -0.06164529 -0.06849598 -0.109803505
-0.019094782 0.08996569 -0.023730138 0.043795265 0.110479236 0.08556061 0.091387495 0.02842284
0.0960179 -0.015346522 -0.03282168 -0.082407735 -0.018637499 -0.07479153 -0.09940112 0.115974516
-0.039911985 -0.14948858 0.1291493 0.048337437 0.0063190223 -0.022822091 0.06994223 0.0856934
-0.06766671 -0.07517516 -0.13762124 -0.10483925 0.1323494 -0.031942114 0.06754412 0.041191977
-0.1411476 0.1033954 0.04192354 0.064984426 -0.0993713 0.118105836 0.13501571 -0.012077998
0.052684918 0.014768746 0.083732426 -0.0026956482 -0.01984591 0.0031309405 -0.1404748 0.1294754
-0.122743376 0.06146753 -0.117112294 0.10518211 0.05990676 0.1217632 -0.11808888 0.13472022
0.084246986 0.08598183 0.047352474 0.039720636 0.088398285 -0.10464062 0.10905048 0.021802226
-0.058623165 -0.02845032 0.10295586 -0.09926174 0.097567186 -0.09579353 0.114603005 -0.06377298
0.10966838 -0.117029585 -0.083424576 -0.055104252 0.027440391 0.006316864 0.03747661 0.04323493
-0.106270656 0.0921321 -0.0060895006 0.10505905 -0.008372484 -0.040271677 0.064508475 0.039539807
0.039975397 -0.032962687 0.15415867 -0.017449994 0.108574145 0.10730212 0.085255705 -0.027474154
-0.034983404 0.048449676 0.0038691682 0.03100879 -0.099619545 -0.15920672 0.049716756 0.08201438
-0.04453751 -0.11297534 -0.05016508 -0.013360934 -0.04864668 -0.16577482 -0.15241371 0.021824367
-0.083532125 0.09658268 -0.16777447 -0.047927495 -0.04735001 -0.092028305 -0.1052176 -0.09020367
0.10059824 -0.05516062 -0.082795285 -0.12800318 -0.06677975 -0.020675674 0.08173886 -0.13715051
0.13057613 -0.034800556 0.119757354 -0.14496292 0.11483126 0.02397522 0.12717982 -0.15432258
0.0026129903 -0.075490505 0.04611642 0.019896604 -0.16802572 0.0047378424 -0.0372799 -0.045535237
-0.06012173 0.075379595 0.05740258 0.1380457 0.11624786 0.13141805 0.0047408994 -0.013629948
00000000: f38a 3bbc dec1 843c f33f a03d 32ac db3d
00000010: db64 0dbd 1e7e 1e3e 454f 9e3b cda1 6ebd
00000020: 56d4 38bb 9ce7 4b3c 276e c5bd 428b eabd
00000030: de9c 27bc 15aa 9f3d 4b18 6c3d 78c3 0b3e
00000040: c4c8 143e 6951 2ebd 4053 213d ea95 20bd
00000050: 8a3d f93d 30d1 293d 65eb 143e 2a5f f73d
00000060: e874 a1bd 0516 8c3d 1227 3f3c cac2 8c3c
00000070: c017 79bd 981c b6bc 8a5f 173d 5ddc a9bd
00000080: f47d 8f3c 16c2 b6bd 0138 8c3d 75c3 c23d
00000090: 34c9 cd3d 9a6f 29bd cf1f dc3d c6f1 c63c
000000a0: 456d 513d a0bb 283e 6a15 023d 5007 8d3d
000000b0: 3eaf c63d 5dfa cabb 9068 af3d 57e8 a83b
000000c0: 2ca8 15be 33b8 4b3d 5c06 fb3d c3ef 973b
000000d0: 855b d83d 53bc b13d bf6f d2bc 0daf f13c
000000e0: 81ec eb3d d6f6 babd 29be 00bd 15c1 ddbd
000000f0: 48bc a53c 86dd a33d c95a 4b3d aecf e5bd
00000100: 4a52 143d 4fe6 58bc a958 e7bd 6d2e 823d
00000110: 5ff5 f7bd 51fa 743d 2656 d83d d948 78bd
00000120: 449b 90bc 663e ee3b 8e5b 97bd 295b b83d
00000130: 6b4e b7bc 22db c0bd 1c3a 253c 2bfc 7ebd
00000140: a67d 36bd f126 083e 4068 d1bd 8cc7 cfbd
00000150: f623 ac3d ad3b 29be 790b e4bd 03c7 bdbd
00000160: 9373 843d dd71 b43c d996 4bbd 7be5 91bd
00000170: 72e5 a9bc f19d 03be 6221 183d 53c0 0d3e
00000180: b62c bcbd 0285 2bbd b638 1fba 2c27 9fbc
00000190: 8f66 babb c67f 7cbd 9f47 8cbd a9e0 e0bd
000001a0: a96c 9cbc ef3f b83d b565 c2bc aa62 333d
000001b0: f042 e23d 673a af3d 5e29 bb3d 04d7 e83c
000001c0: 08a5 c43d fb6f 7bbc 0770 06bd 63c5 a8bd
000001d0: abad 98bc 4d2c 99bd d092 cbbd 0c84 ed3d
000001e0: c07a 23bd 8913 19be b73f 043e 7afd 453d
000001f0: cd0f cf3b 65f5 babc df3d 8f3d 0580 af3d
00000200: d894 8abd 6ff5 99bd 95ec 0cbe f6b5 d6bd
00000210: 9a86 073e bcd5 02bd 9254 8a3d ebb8 283d
00000220: ff88 10be f8c0 d33d 05b8 2b3d 8e16 853d
00000230: 2e83 cbbd 79e1 f13d 8f41 0a3e cce2 45bc
00000240: 24cc 573d 9cf8 713c e87b ab3d 79a9 30bb
00000250: e493 a2bc 7730 4d3b a0d8 0fbe 3395 043e
00000260: e160 fbbd 60c5 7b3d 92d8 efbd b869 d73d
00000270: ca60 753d fc5e f93d 95d8 f1bd 19f4 093e
00000280: af89 ac3d 3e17 b03d abf4 413d 1bb2 223d
00000290: 290a b53d d24d d6bd dc55 df3d 959a b23c
000002a0: d81e 70bd a510 e9bc 86da d23d bd49 cbbd
000002b0: 4ed1 c73d 662f c4bd fbb4 ea3d 689b 82bd
000002c0: d199 e03d 35ad efbd 81da aabd ffb4 61bd
000002d0: acca e03c b2fd ce3b 1381 193d 1c17 313d
000002e0: 6ea4 d9bd c1af bc3d 6f8a c7bb 3329 d73d
000002f0: be2c 09bc eaf3 24bd 051d 843d 7ef4 213d
00000300: 3ebd 233d e203 07bd c5db 1d3e 4af3 8ebc
00000310: 1f5c de3d 37c1 db3d 8b9a ae3d 7a11 e1bc
00000320: c24a 0fbd 2b73 463d df91 7d3b 2506 fe3c
00000330: 5505 ccbd 1607 23be cca3 4b3d 28f7 a73d
00000340: f76c 36bd 9d5f e7bd e679 4dbd d2e7 5abc
00000350: be41 47bd e0c0 29be 5712 1cbe 04c9 b23c
00000360: e412 abbd 24cd c53d 12cd 2bbe 9f4f 44bd
00000370: 16f2 41bd 5679 bcbd 537c d7bd b4bc b8bd
00000380: 7306 ce3d 1af0 61bd 9390 a9bd 4413 03be
00000390: d2c3 88bd 0860 a9bc b466 a73d 2f71 0cbe
000003a0: c0b5 053e 078b 0ebd 5843 f53d 2971 14be
000003b0: a72c eb3d ae67 c43c 6d3b 023e bd06 1ebe
000003c0: b43e 2b3b c49a 9abd 92e4 3c3d 34fe a23c
000003d0: ef0e 2cbe e73f 9b3b cfb2 18bd 2883 3abd
000003e0: 3442 76bd 9e60 9a3d f81e 6b3d da5b 0d3e
000003f0: 5c13 ee3d 7492 063e 8c59 9b3b 2550 5fbc

conv1List.2.bias f4 [77]
0.025122428 0.13360418 0.022223597 -0.052686967 0.053898837 -0.10540424 0.10207498 -0.041021563
0.1056948 0.08456704 0.123113215 -0.09510275 -0.041264385 -0.09171493 0.026445415 -0.101758555
-0.080571175 -0.033085395 0.10002222 -0.12801269 0.028978938 -0.01205463 -0.020684257 0.115912
0.084629826 -0.13520025 -0.10975976 -0.1293085 0.05938684 0.01930767 0.11855354 0.060399268
0.0470891 -0.053279378 0.106104 0.10113268 -0.11912057 0.13597417 -0.03884198 -0.03598766
-0.10769507 0.061895456 -0.148342 -0.12717985 -0.10162485 0.0126816025 -0.03482459 -0.026341692
0.058655582 0.0703951 -0.07639508 -0.14760518 -0.066977344 0.016746197 0.093739174 -0.059931632
-0.030757487 -0.109603964 -0.0099833915 0.006095619 0.06402323 0.12600793 -0.013492984 -0.039100986
0.0025661422 -0.14067793 -0.061896462 0.022944272 0.059010215 0.06769629 -0.07404976 -0.01988286
0.08318908 -0.11531258 -0.12060799 -0.06659689 -0.02445976
00000000: 8dcd cd3c 89cf 083e 430e b63c 4ace 57bd
00000010: 07c5 5c3d 2ede d7bd b00c d13d 3a06 28bd
00000020: 8476 d83d 7c31 ad3d c822 fc3d 3bc5 c2bd
00000030: d804 29bd 0ad5 bbbd 0ea4 d83c ca66 d0bd
00000040: 8002 a5bd 8d84 07bd 73d8 cc3d c215 03be
00000050: 3d65 ed3c c880 45bc 0872 a9bc 4563 ed3d
00000060: 6752 ad3d ef71 0abe bac9 e0bd 7369 04be
00000070: 9d3f 733d 1e2b 9e3c 33cc f23d 3965 773d
00000080: 80e0 403d 7a3b 5abd 0e4d d93d a71e cf3d
00000090: 7cf5 f3bd d03c 0b3e c518 1fbd cc67 13bd
000000a0: 3c8f dcbd 1786 7d3d f7e6 17be 6f3b 02be
000000b0: b020 d0bd 7fc6 4f3c 3ba4 0ebd 88ca d7bc
000000c0: d640 703d 4e2b 903d 0675 9cbd d025 17be
000000d0: 6b2b 89bd 522f 893c 53fa bf3d df7a 75bd
000000e0: 20f7 fbbc 0b78 e0bd 6191 23bc c2bd c73b
000000f0: 9c1e 833d 3908 013e ad11 5dbc 5b28 20bd
00000100: b92c 283b e00d 10be 2587 7dbd a0f5 bb3c
00000110: b2b4 713d 5aa4 8a3d 67a7 97bd 61e1 a2bc
00000120: 095f aa3d 0029 ecbd 5201 f7bd f363 88bd
00000130: d65f c8bc

fc.weight f4 [3, 231]
-0.013850455 0.0051052948 0.036244944 -0.035418067 0.0109743215 -0.039820097 0.057383344 -0.025498677
0.05661591 0.03675436 0.018569725 -0.000579908 0.03236154 0.026150763 -0.005940865 0.03310804
0.049236402 0.03506604 0.011446163 -0.035017762 -0.05141384 -0.014891797 -0.073983885 0.07129127
-0.008986759 -0.0025669131 0.009507982 0.08160306 0.024045272 0.0033397246 -0.03182771 -0.008655014
-0.011071727 0.07704003 -0.062412366 -0.014720883 -0.015589342 -0.019462682 3.0456744e-05 -0.004731051
-0.08814284 0.035378266 0.039980534 0.056600075 0.03544867 -0.011579409 0.049464084 -0.067682184
0.04390897 0.028143298 0.05247702 0.00091661507 0.019026956 -0.055999003 -0.03703497 0.012691227
0.060282234 0.024132663 -0.04649048 0.066127405 -0.031077513 0.03515361 -0.0013270105 -0.05839296
0.012783509 0.06352107 -0.009110739 0.039817404 0.019115767 -0.050413966 -0.04114095 0.028350143
-0.045488317 0.03496355 -0.036321532 -0.05164369 0.035362054 0.038064707 -0.084375635 -0.07369837
-0.022071214 -0.07394183 -0.014024852 -0.02510271 -0.03811036 -0.07564102 0.080563836 0.029386172
-0.060753025 0.04536419 -0.0016429225 -0.025638575 0.05388565 -0.06189538 -0.06342997 0.0018106067
0.0033368529 0.026566697 -0.05748122 -0.02323662 -0.021116145 0.031342126 0.038170792 0.021725899
0.021875719 -0.058456674 0.0027305363 0.026992116 -0.03309982 -0.049302153 0.0049651586 0.035045527
-0.040153716 -0.006683198 0.020905139 -0.042442005 0.023566408 -0.057208482 0.007295017 -0.019111557
-0.018510157 -0.07853946 0.0020492987 0.07004179 0.05633974 0.039894383 0.02182676 -0.015700089
-0.051779196 -0.022789558 0.03857998 -0.003219578 -0.046896785 -0.086407006 0.047186032 -0.06170678
-0.040427163 0.03453436 0.04914974 0.039293773 0.049837664 -0.060339365 -0.042903222 0.005561407
0.023538804 -0.012206599 -0.049746603 0.035709053 -0.01808866 0.053101394 -0.06026248 0.058750108
-0.05655467 -0.048317295 -0.04006791 0.022251701 0.040622506 0.049614094 0.046797644 0.024060333
-0.00539275 -0.026810035 -0.059440885 0.044766728 0.01887661 -0.03612725 0.038342632 0.03261837
-0.035288148 -0.078815475 -0.05160619 -0.036911804 -0.027316874 -0.04399569 -0.05245514 0.017837308
0.010818418 0.050567452 -0.017427994 0.026414497 0.018366283 0.064655736 -0.026584534 -0.021186212
0.023183404 0.043723386 0.04953973 0.013323549 -0.050366193 -0.015129589 -0.03719167 0.052903857
-0.054378606 0.02345198 0.019645028 -0.004641243 0.03637126 0.051307645 -0.053203396 -0.0527665
-0.040679295 -0.0009898749 -0.028685044 0.0023610452 -0.011962481 0.027126798 0.028850667 -0.09386924
-0.044778306 0.024112813 -0.0014277651 -0.07250716 -0.05528593 -0.02453271 0.04222358 0.019414691
0.05254297 -0.027503755 -0.008042325 0.031679813 -0.004399015 -0.05226867 -0.008138729 0.00637017
0.055611376 -0.040505253 -0.07109753 -0.046589423 0.020075053 -0.034533054 0.03995505 -0.014978462
0.030246494 0.008828785 0.010017143 -0.07201549 -0.02435823 -0.030798065 0.058227785 0.0038464104
-0.052201346 0.026791055 -0.05836934 -0.016967788 -0.023459941 0.050862186 -0.061622117 -0.0247042
0.02685416 -0.06842485 0.04090624 -0.046462577 0.030538257 -0.038997293 0.045849152 -0.03586115
00000000: 05ed 62bc 514a a73b 9475 143d 8912 11bd
00000010: a4cd 333c 661a 23bd cc0a 6b3d 9ae2 d0bc
00000020: 16e6 673d bd8b 163d 891f 983c f804 18ba
00000030: 898d 043d 203a d63c 96ab c2bb 4c9c 073d
00000040: 1cac 493d 68a1 0f3d b088 3b3c c96e 0fbd
00000050: 5297 52bd b9fc 73bc dd84 97bd 2801 923d
00000060: 333d 13bc a839 28bb 5ec7 1b3c 811f a73d
00000070: 97fa c43c 48df 5a3b c65d 02bd c3cd 0dbc
00000080: 3066 35bc 2ac7 9d3d 1ca4 7fbd dc2f 71bc
00000090: 716a 7fbc 3470 9fbc 5c7d ff37 ef06 9bbb
000000a0: 3c84 b4bd cde8 103d a1c2 233d 7bd5 673d
000000b0: a032 113d 90b7 3dbc da9a 4a3d f59c 8abd
000000c0: e4d9 333d c68c e63c 25f2 563d ff48 703a
000000d0: 6bde 9b3c 365f 65bd fbb1 17bd ddee 4f3c
000000e0: 81ea 763d ddb1 c53c cd6c 3ebd ce6d 873d
000000f0: 4596 febc 3bfd 0f3d 15ef adba 752d 6fbd
00000100: ec71 513c 5617 823d 3645 15bc 9317 233d
00000110: ab98 9c3c e07e 4ebd 6a83 28bd 8f3e e83c
00000120: f551 3abd f035 0f3d e3c5 14bd 5588 53bd
00000130: cdd7 103d bde9 1b3d 22cd acbd 2cef 96bd
00000140: b1ce b4bc d06e 97bd 7ec8 65bc 33a4 cdbc
00000150: 9c19 1cbd aee9 9abd a7fe a43d 45bb f03c
00000160: 2ad8 78bd cdcf 393d 5557 d7ba fd07 d2bc
00000170: 33b7 5c3d 0386 7dbd 92e7 81bd e151 ed3a
00000180: 1aaf 5a3b 67a2 d93c 6e71 6bbd b95a bebc
00000190: c4fb acbc 9a60 003d fa58 1c3d 83fa b13c
000001a0: b534 b33c 4470 6fbd ccf2 323b 921e dd3c
000001b0: ad93 07bd 0ef1 49bd c5b2 a23b e68b 0f3d
000001c0: 3978 24bd bafe dabb 4141 ab3c abd7 2dbd
000001d0: 570e c13c 7153 6abd 0a0b ef3b d78f 9cbc
000001e0: 9da2 97bc 4cd9 a0bd 874d 063b 1272 8f3d
000001f0: 80c4 663d 4b68 233d 09ce b23c 799d 80bc
00000200: 6c16 54bd 2bb1 babc 0b06 1e3d 8eff 52bb
00000210: d816 40bd 28f6 b0bd 2446 413d 40c0 7cbd
00000220: f496 25bd e773 0d3d 3d51 493d 82f2 203d
00000230: 9422 4c3d 6926 77bd 4abb 2fbd 773c b63b
00000240: 73d4 c03c 30fe 47bc 18c3 4bbd a843 123d
00000250: ab2e 94bc d980 593d cad5 76bd f4a3 703d
00000260: dfa5 67bd 5be8 45bd 401e 24bd 3349 b63c
00000270: c963 263d 2638 4b3d e3ae 3f3d 2d1a c53c
00000280: aab5 b0bb b8a0 dbbc 4978 73bd 515d 373d
00000290: 1fa3 9a3c 2bfa 13bd 2a0d 1d3d d79a 053d
000002a0: 4e8a 10bd 026a a1bd 0361 53bd d530 17bd
000002b0: a3c7 dfbc d334 34bd 33db 56bd 8c1f 923c
000002c0: bc3f 313c d11f 4f3d 27c5 8ebc 3763 d83c
000002d0: e374 963c 3a6a 843d cfc7 d9bc b58e adbc
000002e0: 1feb bd3c 4b17 333d 2cea 4a3d 044b 5a3c
000002f0: c84c 4ebd 18e2 77bc 4b56 18bd b7b1 583d
00000300: 1abc 5ebd 5e1e c03c 9cee a03c 9115 98bb
00000310: 08fa 143d f727 523d ceeb 59bd af21 58bd
00000320: 559f 26bd b1be 81ba e6fc eabc c4bb 1a3b
00000330: 48fe 43bc 0539 de3c 3c58 ec3c 843e c0bd
00000340: 7569 37bd 3c88 c53c d923 bbba a27e 94bd
00000350: 8073 62bd d2f8 c8bc a2f2 2c3d 8f0b 9f3c
00000360: 4c37 573d 8e4f e1bc f5c3 03bc b1c2 013d
00000370: 9d25 90bb ac17 56bd 4e58 05bc dcbc d03b
00000380: c1c8 633d d6e8 25bd 959b 91bd 8dd4 3ebd
00000390: 7074 a43c 8872 0dbd e8a7 233d 3968 75bc
000003a0: 7fc7 f73c 9ca6 103c f11e 243c db7c 93bd
000003b0: e98a c7bc 394c fcbc 4280 6e3d 0f14 7c3b
000003c0: 14d1 55bd ea78 db3c b014 6fbd 0800 8bbc
000003d0: 102f c0bc de54 503d 7967 7cbd 7660 cabc
000003e0: 41fd db3c 5422 8cbd 4d8d 273d 8b4f 3ebd
000003f0: 5e2b fa3c a0bb 1fbd 52cc 3b3d 24e3 12bd

fc.bias f4 [3]
-0.06447704 -0.007383644 0.03270909
00000000: 8a0c 84bd 7ff2 f1bb f7f9 053d
